_________________________________________________________________
Layer (type)                 Output Shape              Param #   
=================================================================
dense_17 (Dense)             (None, 50)                1100      
_________________________________________________________________
dense_18 (Dense)             (None, 50)                2550      
_________________________________________________________________
dense_19 (Dense)             (None, 50)                2550      
_________________________________________________________________
dense_20 (Dense)             (None, 2)                 102       
=================================================================
Total params: 6,302
Trainable params: 6,302
Non-trainable params: 0
_________________________________________________________________
loss= binary_crossentropy,opt= <class 'keras.optimizers.Adam'>
opt= <class 'keras.optimizers.Adam'>
accuracy: {'NN': 0.8028228282928467, 'Tree': 0.7488888888888888}

fetures 
_________________________________________________________________
Layer (type)                 Output Shape              Param #   
=================================================================
dense_17 (Dense)             (None, 50)                1100      
_________________________________________________________________
dense_18 (Dense)             (None, 50)                2550      
_________________________________________________________________
dense_19 (Dense)             (None, 50)                2550      
_________________________________________________________________
dense_20 (Dense)             (None, 2)                 102       
=================================================================
Total params: 6,302
Trainable params: 6,302
Non-trainable params: 0
_________________________________________________________________
loss= binary_crossentropy,opt= <class 'keras.optimizers.Adam'>
opt= <class 'keras.optimizers.Adam'>
accuracy: {'NN': 0.797957976659139, 'Tree': 0.7531531531531531}

_________________________________________________________________
Layer (type)                 Output Shape              Param #   
=================================================================
dense_17 (Dense)             (None, 50)                1100      
_________________________________________________________________
dense_18 (Dense)             (None, 50)                2550      
_________________________________________________________________
dense_19 (Dense)             (None, 50)                2550      
_________________________________________________________________
dense_20 (Dense)             (None, 2)                 102       
=================================================================
Total params: 6,302
Trainable params: 6,302
Non-trainable params: 0
_________________________________________________________________
loss= binary_crossentropy,opt= <class 'keras.optimizers.Adam'>
opt= <class 'keras.optimizers.Adam'>
accuracy: {'NN': 0.7803002993265787, 'Tree': 0.7266666666666666}

fetures ['Pclass' 'SibSp' 'Parch' 'AgeBin_(-0.08, 16.0]' 'AgeBin_(16.0, 32.0]'
…
